data.pth (torch, 4439 bytes, 6 tensors)

l1.weight f4 [8, 39]
-0.29541674 -0.114202686 -0.084854625 0.57581496 -0.34855676 -0.35966492 -0.15311971 -0.12089839
0.43044558 -0.21072534 -0.1341691 0.14142835 0.47179013 -0.48418653 -0.48469874 -0.45941138
-0.31009054 0.41600618 -0.06970875 0.37350705 0.36268318 -0.14976186 0.008414894 0.025929255
0.51458985 -0.06349142 0.017140236 0.012742775 -0.015816897 -0.13716522 0.38751727 0.06770861
-0.040128477 0.12766367 0.42422283 -0.1720033 0.002678756 0.28482926 0.101886705 0.12208818
0.040973574 0.11707121 0.16126396 -0.063096486 0.7578159 0.64781624 0.32670432 -0.32697672
0.56066775 0.6673486 0.522995 -0.3268454 -0.3232875 -0.21781932 -0.069317475 0.43074185
0.6172658 0.5194247 0.3435738 -0.18332003 0.2467322 -0.5245908 0.27945727 0.08181481
0.4894686 0.4456801 -0.23695049 -0.045118008 -0.029850218 0.013916678 -0.4550942 0.25335777
0.35904005 0.31460977 0.49001002 0.27927536 -0.23351899 0.2171947 -0.24518947 -0.24423179
0.5665866 -0.29918933 0.8483744 -0.044258054 0.12211807 0.46073404 0.04516072 -0.13932626
0.20233801 0.39494812 0.031850763 0.19381489 0.35872653 0.20923938 0.19551268 -0.054001357
0.64071035 -0.06467751 -0.064312294 0.27079192 -0.33632177 0.39313936 -0.26505566 0.3014137
0.42365912 0.66708666 0.4086053 0.60994637 0.14683285 -0.4263702 0.5461801 0.28583375
-0.051739447 0.5732182 0.4192745 0.15537654 0.790718 0.49239284 0.4967927 0.014598881
0.34038275 -0.10197573 -0.14838108 0.03464709 -0.121916495 0.24290222 -0.114857666 -0.035787337
0.22481091 0.41434455 -0.18319951 -0.18335626 -0.18369979 0.22393441 0.45299152 0.41893193
0.5485296 -0.11070071 0.4478499 0.36256516 0.19841537 0.3871702 0.28233603 0.3562032
-0.11989394 0.08995459 0.075798415 -0.12039386 0.279524 0.42022187 0.019300766 0.4139806
0.6736527 0.01780425 -0.30538866 0.4037618 -0.07787909 -0.27448425 0.17608425 0.058866587
0.09040969 -0.21493876 -0.14938603 -0.4388589 0.46681103 -0.11295247 -0.27474573 -0.3091681
0.65648663 0.45780697 0.7310329 0.68209535 0.41463447 0.0365842 -0.42866287 0.19892672
0.45602798 -0.14990638 0.08921184 -0.2817445 0.31882444 -0.29358864 -0.078841336 0.3823831
0.4488418 0.3119384 0.4346944 -0.1267767 -0.052221403 -0.3431215 0.017621728 -0.14030316
-0.16346508 0.5923376 0.01657272 0.70571506 0.62159497 0.35517678 -0.0122081395 0.41091543
0.5078347 0.6381445 -0.55566984 -0.5169533 0.46099266 0.5525649 0.22716641 -0.50357336
0.6460912 0.6544076 0.58534473 0.4554012 0.4948728 -0.45817405 -0.15047428 -0.3210427
0.010373194 0.600039 -0.1558391 -0.15106584 -0.27809432 -0.11965065 0.47954872 0.3008354
0.48769265 -0.2819603 0.37588388 -0.30083066 -0.34047332 0.33476755 0.28399667 0.017432237
0.36126044 0.03757174 -0.058883034 0.14938462 -0.23287861 -0.12641348 0.37315378 -0.27022505
-0.14333667 0.6706831 0.06342796 0.018652052 -0.09090797 -0.35895136 -0.21396832 0.6304258
0.58239853 0.6084026 0.3098878 -0.3568858 -0.1544562 -0.15358032 -0.19293045 -0.2864556
00000000: dd40 97be 19e3 e9bd 43c8 adbd 9c68 133f
00000010: 0876 b2be 0026 b8be 6acb 1cbe 9399 f7bd
00000020: 5d63 dc3e 62c8 57be a063 09be 98d2 103e
00000030: 7a8e f13e 4ce7 f7be 6f2a f8be f837 ebbe
00000040: 30c4 9ebe c3fe d43e 76c3 8ebd 513c bf3e
00000050: 9cb1 b93e 2c5b 19be a0de 093c 9769 d43c
00000060: 29bc 033f ca07 82bd ae69 8c3c 12c7 503c
00000070: 7092 81bc 0a75 0cbe aa68 c63e d0aa 8a3d
00000080: c25d 24bd 44ba 023e bc33 d93e a221 30be
00000090: 118e 2f3b 24d5 913e faa9 d03d 5e09 fa3d
000000a0: e8d3 273d 08c3 ef3d 6122 253e bb38 81bd
000000b0: 3900 423f 49d7 253f ca45 a73e 7e69 a7be
000000c0: ec87 0f3f 5cd7 2a3f 00e3 053f 4858 a7be
000000d0: f085 a5be 070c 5fbe 52f6 8dbd 328a dc3e
000000e0: 2205 1e3f 04f9 043f e8e8 af3e 3fb8 3bbe
000000f0: 5ea7 7c3e 954b 06bf 0615 8f3e 868e a73d
00000100: a19b fa3e 2f30 e43e 26a3 72be a9cd 38bd
00000110: 7288 f4bc c702 643c 1b02 e9be 1cb8 813e
00000120: 19d4 b73e 8814 a13e 98e2 fa3e 2efd 8e3e
00000130: 9a1f 6fbe 4a68 5e3e f312 7bbe e617 7abe
00000140: d20b 113f 582f 99be 112f 593f ef47 35bd
00000150: 0a19 fa3d 55e5 eb3e 72fa 383d 8bab 0ebe
00000160: b231 4f3e a436 ca3e f275 023d 6977 463e
00000170: 01ab b73e d942 563e 7a34 483e 8730 5dbd
00000180: 9805 243f a475 84bd 2ab6 83bd 3da5 8a3e
00000190: 5e32 acbe 9049 c93e 60b5 87be e652 9a3e
000001a0: d9e9 d83e 31c6 2a3f b734 d13e 7225 1c3f
000001b0: 5a5b 163e 324d dabe 76d2 0b3f cd58 923e
000001c0: beec 53bd 6ebe 123f 26ab d63e 071b 1f3e
000001d0: 7f6c 4a3f ea1a fc3e 9d5b fe3e 2530 6f3c
000001e0: a646 ae3e a7d8 d0bd 36f1 17be 1bea 0d3d
000001f0: 5baf f9bd 5cbb 783e 7f3a ebbd be95 12bd
00000200: d534 663e f824 d43e a798 3bbe bec1 3bbe
00000210: cc1b 3cbe 104f 653e 81ee e73e 3f7e d63e
00000220: 706c 0c3f 0eb7 e2bd 954c e53e 24a2 b93e
00000230: 662d 4b3e 2c3b c63e 598e 903e 4460 b63e
00000240: f48a f5bd 1d3a b83d 333c 9b3d 0e91 f6bd
00000250: c51d 8f3e 5227 d73e a41c 9e3c 44f5 d33e
00000260: 8174 2c3f 38da 913c e75b 9cbe deb9 ce3e
00000270: 137f 9fbd 3389 8cbe 6e4f 343e 171e 713d
00000280: b728 b93d e818 5cbe a7f8 18be 1db2 e0be
00000290: db01 ef3e a053 e7bd 79ab 8cbe 484b 9ebe
000002a0: 820f 283f ad65 ea3e f924 3b3f cd9d 2e3f
000002b0: f84a d43e 50d9 153d b379 dbbe 72b3 4b3e
000002c0: 807c e93e 0f81 19be b2b4 b63d d140 90be
000002d0: f53c a33e 4051 96be 9177 a1bd b8c7 c33e
000002e0: 98ce e53e 64b6 9f3e 4490 de3e c0d1 01be
000002f0: 1ce6 55bd 9fad afbe 715b 903c a2ab 0fbe
00000300: 6463 27be 70a3 173f 83c3 873c bea9 343f
00000310: d920 1f3f bbd9 b53e a604 48bc 8263 d23e
00000320: 7401 023f 705d 233f 6140 0ebf 0d57 04bf
00000330: 3b07 ec3e e574 0d3f 509e 683e 2fea 00bf
00000340: 3c66 253f 4287 273f 27d9 153f 592a e93e
00000350: f85f fd3e ca95 eabe ee15 1abe b55f a4be
00000360: 54f4 293c 289c 193f 4994 1fbe 01b1 1abe
00000370: 6162 8ebe 660b f5bd 6987 f53e 1907 9a3e
00000380: dab2 f93e 1a5d 90be da73 c03e 7a06 9abe
00000390: 8552 aebe a766 ab3e 0368 913e 0dce 8e3c
000003a0: 21f7 b83e d3e4 193d 562f 71bd 48f8 183e
000003b0: bb77 6ebe 8972 01be 030e bf3e f05a 8abe
000003c0: d9c6 12be e3b1 2b3f 85e6 813d 30cc 983c
000003d0: f52d babd 79c8 b7be 831a 5bbe 9663 213f
000003e0: 1218 153f 46c0 1b3f 9da9 9e3e bcb9 b6be
000003f0: c429 1ebe 2944 1dbe 8f8f 45be 4faa 92be

l1.bias f4 [8]
0.48471382 0.32686278 0.73465484 0.18319455 0.846196 0.58417946 0.8172572 0.28739512
00000000: 692c f83e 8f5a a73e 5712 3c3f 5a97 3b3e
00000010: 4da0 583f c98c 153f c537 513f 7425 933e

l2.weight f4 [8, 8]
0.60955626 0.8854007 0.35428542 0.734699 0.56251943 0.47905183 -0.99190706 1.092671
0.19329073 0.266144 1.0310802 0.71722275 -0.5599926 -0.7169913 0.27871576 0.19512339
-0.71017385 0.53746176 0.4862195 -0.14112836 0.034273293 0.8144405 -0.10388316 0.025479196
-0.7389512 -0.31637418 0.406448 -0.10236601 -0.017884573 1.1931653 0.42619205 -0.6200708
-0.19924723 0.70022506 0.7833949 0.8973355 -0.78589565 0.20750749 -0.13359682 0.10442363
1.0603704 -0.9486756 -0.15787417 0.6744174 1.3830583 0.19556235 0.13794076 0.43843096
-0.6857532 0.5800469 0.20680584 -0.99313015 0.44713414 0.23095946 0.90775424 -0.9499129
0.14599927 -0.42734376 1.1615498 -0.8048747 1.2322924 0.17258467 0.43237585 -0.06948332
00000000: e10b 1c3f 9fa9 623f e664 b53e 3c15 3c3f
00000010: 4601 103f 4846 f53e 9fed 7dbf a5dc 8b3f
00000020: 01ee 453e 0744 883e 70fa 833f e99b 373f
00000030: ad5b 0fbf be8c 37bf d5b3 8e3e 6dce 473e
00000040: f4cd 35bf 1897 093f c3f1 f83e f483 10be
00000050: 2762 0c3d 2c7f 503f b2c0 d4bd bfb9 d03c
00000060: e82b 3dbf ccfb a1be f419 d03e 45a5 d1bd
00000070: ab82 92bc a4b9 983f d835 da3e f6bc 1ebf
00000080: 7707 4cbe f341 333f 918c 483f c8b7 653f
00000090: 7530 49bf d87c 543e 9bcd 08be 0edc d53d
000000a0: 38ba 873f 67dc 72bf c4a9 21be 9ea6 2c3f
000000b0: 0e08 b13f 7f41 483e 5840 0d3e 067a e03e
000000c0: 868d 2fbf f47d 143f e9c4 533e c73d 7ebf
000000d0: c4ee e43e a380 6c3e 9562 683f 7e2d 73bf
000000e0: d580 153e cdcc dabe aaad 943f 450c 4ebf
000000f0: c2bb 9d3f 09ba 303e 5e60 dd3e 454d 8ebd

l2.bias f4 [8]
-0.030170303 0.24920546 0.3007532 0.52212435 0.23261 0.93509626 0.32511896 0.44594222
00000000: b627 f7bc b72f 7f3e 53fc 993e f1a9 053f
00000010: 5131 6e3e 7862 6f3f fe75 a63e 8a52 e43e

l3.weight f4 [8, 8]
0.5117757 -0.83024913 0.53063446 -0.18391566 0.018549968 -0.954851 -0.2747113 -1.3298194
-1.0918418 0.69796944 -0.01937277 0.037693225 -0.42222062 -0.80970836 0.48295224 0.08875149
-0.19627778 -0.0806488 -0.8632616 -0.7824855 -1.4786918 0.80818546 -0.8867459 0.55082977
-0.8364766 -0.94745064 0.24218039 0.65236217 -1.6041352 0.12484184 0.9656347 0.35474983
0.5716162 0.021839641 -1.1084635 -0.7927005 -0.09254126 0.29784843 -0.75265783 -1.6170874
0.1172156 0.5782319 -0.34082475 -1.1134982 0.6103673 -0.3801675 -0.42648277 -1.2496779
-0.11157651 -0.08875567 0.40771055 0.07863189 -0.37442076 -0.20245776 -0.89626974 0.21175395
-0.2639051 -1.4396498 0.4104685 0.6191416 -0.060788576 0.40152702 -1.0263027 -0.92820203
00000000: bb03 033f 358b 54bf a9d7 073f 6354 3cbe
00000010: 1af6 973c 1d71 74bf f6a6 8cbe 8637 aabf
00000020: 79c1 8bbf 20ae 323f a5b3 9ebc 3664 1a3d
00000030: 4d2d d8be 0c49 4fbf 8445 f73e 57c3 b53d
00000040: 0bfd 48be 332b a5bd b6fe 5cbf f850 48bf
00000050: c645 bdbf 3ee5 4e3f c801 63bf 2e03 0d3f
00000060: 5523 56bf 208c 72bf 23fe 773e 3501 273f
00000070: 4d54 cdbf 14ad ff3d d633 773f c5a1 b53e
00000080: 7055 123f 0ce9 b23c 22e2 8dbf 6cee 4abf
00000090: 4686 bdbd 977f 983e 2fae 40bf b8fc cebf
000000a0: bc0e f03d 0107 143f 9580 aebe 1c87 8ebf
000000b0: 0841 1c3f 51a5 c2be f35b dabe 72f5 9fbf
000000c0: 3a82 e4bd 88c5 b5bd 70bf d03e c209 a13d
000000d0: 14b4 bfbe 1651 4fbe ef71 65bf 07d6 583e
000000e0: 921e 87be 7246 b8bf ed28 d23e 1080 1e3f
000000f0: 71fd 78bd f394 cd3e e35d 83bf a69e 6dbf

l3.bias f4 [8]
0.088919684 0.08608724 0.29020995 -0.22086883 -0.24226758 -0.0015861678 -0.20060232 -0.084869936
00000000: 861b b63d 824e b03d 6696 943e 702b 62be
00000010: fe14 78be f6e6 cfba b26a 4dbe 4ad0 adbd
